…
    "test": "/kaggle/input/competitions/sem-eval-2026-task-13-subtask-a/Task_A/test_sample.parquet"
}

test_sample_set = load_dataset("parquet", data_files=test_sample_file)["test"]
from torch.utils.data import DataLoader

test_dataset = ValidCodeDataset(
    test_sample_set,
    tokenizer,
    max_len
)

test_loader = DataLoader(
    test_dataset,
    batch_size=16,
    shuffle=False,
    num_workers=2
)
model.load_state_dict(
    torch.load("checkpoints/best_model.pt")
)

model.to(device)
model.eval()
Detector(
  (encoder): RobertaModel(
    (embeddings): RobertaEmbeddings(
      (word_embeddings): Embedding(50265, 768, padding_idx=1)
      (token_type_embeddings): Embedding(1, 768)
      (LayerNorm): LayerNorm((768,), eps=1e-05, elementwise_affine=True)
      (dropout): Dropout(p=0.1, inplace=False)
      (position_embeddings): Embedding(514, 768, padding_idx=1)
    )
    (encoder): RobertaEncoder(
      (layer): ModuleList(
        (0-11): 12 x RobertaLayer(
          (attention): RobertaAttention(
            (self): RobertaSelfAttention(
              (query): Linear(in_features=768, out_features=768, bias=True)
              (key): Linear(in_features=768, out_features=768, bias=True)
              (value): Linear(in_features=768, out_features=768, bias=True)
              (dropout): Dropout(p=0.1, inplace=False)
            )
            (output): RobertaSelfOutput(
              (dense): Linear(in_features=768, out_features=768, bias=True)
              (LayerNorm): LayerNorm((768,), eps=1e-05, elementwise_affine=True)
              (dropout): Dropout(p=0.1, inplace=False)
            )
          )
          (intermediate): RobertaIntermediate(
            (dense): Linear(in_features=768, out_features=3072, bias=True)
            (intermediate_act_fn): GELUActivation()
          )
          (output): RobertaOutput(
            (dense): Linear(in_features=3072, out_features=768, bias=True)
            (LayerNorm): LayerNorm((768,), eps=1e-05, elementwise_affine=True)
            (dropout): Dropout(p=0.1, inplace=False)
          )
        )
      )
    )
    (pooler): RobertaPooler(
      (dense): Linear(in_features=768, out_features=768, bias=True)
      (activation): Tanh()
    )
  )
  (dropout): Dropout(p=0.5, inplace=False)
  (classifier): Linear(in_features=769, out_features=1, bias=True)
)
test_metrics = evaluate(model, test_loader, device)

print("Test Sample Metrics:", test_metrics)
Test Sample Metrics: {'accuracy': 0.282, 'f1': 0.3657243816254417, 'precision': 0.22772277227722773, 'recall': 0.9282511210762332}
 
 
import pandas as pd

model.eval()

ids = []
preds = []

with torch.no_grad():

    for batch in test_loader:

        input_ids = batch["input_ids"].to(device)
…
